best_model.pth (torch, 57954 bytes, 12 tensors)

lstm.weight_ih_l0 f4 [128, 1]
0	0x3dd28cdf	0.10280775
1	0xbd91973d	-0.071089245
2	0xbe432eb0	-0.19060779
3	0xbbd1ed85	-0.0064064884
4	0xbccd96c4	-0.025096305
5	0x3eddb034	0.43298495
6	0xbd3728ae	-0.04471653
7	0x3c76e8bc	0.015070137
8	0x3e358343	0.17725854
9	0xbea41a80	-0.32051468
10	0xbce23567	-0.027613355
11	0x3e383816	0.17990145
12	0xbec33514	-0.38126433
13	0xbc88508d	-0.016639972
14	0xbdc5c943	-0.09657528
15	0x3e35449c	0.17701954
16	0xbe6f7c64	-0.23387295
17	0xbe0fc9a4	-0.14041764
18	0x3e040091	0.12890841
19	0x3e72fe0d	0.23729725
20	0xbd1ef9f8	-0.038812608
21	0x3eb3839b	0.35061345
22	0xbe0ad3cd	-0.13557358
23	0xbe2c6910	-0.16836953
24	0x3e4f73f4	0.20259076
25	0xbe75762b	-0.23970859
26	0x3d93418c	0.071902364
27	0x3ebc2c84	0.36752713
28	0x3e66c828	0.22537291
29	0x3e5f9bf2	0.21836832
30	0x3e462321	0.19349338
31	0xbda5e24b	-0.080998026
32	0x3d8dddac	0.06927046
33	0x3d8c86ce	0.068616495
34	0x3d59138e	0.052997164
35	0x3e52f2d6	0.20600447
36	0x3e0fd3a1	0.14045574
37	0x3e301a4b	0.1719753
38	0x3e12d55a	0.143392
39	0x3e25cb53	0.16190843
40	0x3c463d5b	0.012099589
41	0xbea16e58	-0.31529498
42	0xbd42a629	-0.047521744
43	0x3de9602c	0.113952965
44	0xbea5211d	-0.32251826
45	0xbdf8ac82	-0.12142278
46	0xbdfade3e	-0.122494206
47	0x3ce660f4	0.028122403
48	0xbe5f2c64	-0.21794277
49	0x3e0b4619	0.13600959
50	0xbd63a396	-0.05557593
51	0x3e83192c	0.25605142
52	0x3e32af43	0.1744967
53	0x3e1f7b91	0.1557448
54	0xbd992cbe	-0.07479237
55	0xbe0c4f3b	-0.13702099
56	0xbbcc73a2	-0.0062393704
57	0xbe0372b3	-0.12836723
58	0xbe31215f	-0.17297886
59	0x3e20f05d	0.15716691
60	0x3e21af5a	0.15789548
61	0x3cab2142	0.020889882
62	0x3e528e7b	0.20562164
63	0xbeabc139	-0.33545855
64	0x3e2f4ee4	0.17119938
65	0x3d6914f8	0.056904763
66	0x3d9c7d24	0.07641056
67	0x3e0caf38	0.13738716
68	0xbd750223	-0.05981649
69	0xbea6ec20	-0.32602024
70	0xbdde0468	-0.10840684
71	0xbe928341	-0.28615764
72	0xbe74b8cd	-0.23898621
73	0xbd85842b	-0.0651935
74	0xbe2134f2	-0.15742853
75	0xbdecd152	-0.11563362
76	0xbe5e6757	-0.21719109
77	0x3e70b915	0.23508103
78	0xbe60dfd0	-0.21960378
79	0x3ed145ef	0.40873668
80	0xbe57de44	-0.21080881
81	0x3e02dc50	0.12779355
82	0xbdac5ca0	-0.08416104
83	0x3e14ec3c	0.14543241
84	0xbeaf99dd	-0.34297076
85	0xbec4e4cc	-0.38455808
86	0x3df56e13	0.119838856
87	0xbdaba081	-0.08380223
88	0x3c527843	0.012846055
89	0x3e3a3885	0.18185623
90	0x3e56c2e6	0.20972785
91	0xbe05b510	-0.13057351
92	0xbd0217c3	-0.031760942
93	0x3e0b6972	0.13614443
94	0xbd89bc52	-0.067253724
95	0xbf02ce85	-0.51096374
96	0x3e8169c4	0.25276005
97	0x3dc15046	0.09439139
98	0x3da96919	0.08271999
99	0xbcf487f6	-0.029849987
100	0x3dfa9bfa	0.122367814
101	0x3e8bdd8f	0.27317473
102	0xbcc415dc	-0.023936205
103	0x3dd976c6	0.10618357
104	0x3d229525	0.039693017
105	0xbdd6a835	-0.10481302
106	0x3d8e4b4e	0.06947957
107	0xbd8ea4d8	-0.06965035
108	0xbea1186b	-0.31463942
109	0xbdbd02c7	-0.09229045
110	0x3e052a67	0.13004456
111	0x3e07447a	0.13209715
112	0xbd7fd00c	-0.06245427
113	0x3e0b0cc1	0.13579084
114	0xbd3306b0	-0.04370755
115	0x3e4ce656	0.20009741
116	0x3d98b515	0.07456414
117	0x3e7fbf0e	0.24975225
118	0x3df3d117	0.11905115
119	0xbe6f5c53	-0.23375063
120	0x3d213287	0.039354827
121	0xbe867ded	-0.2626795
122	0xbc2dbfad	-0.010604781
123	0xbe036700	-0.1283226
124	0xbcc88ad5	-0.024480263
125	0x3d12faac	0.03588359
126	0x3eac07e8	0.33599782
127	0xbe6df988	-0.2323972

lstm.weight_hh_l0 f4 [128, 32]
0	0x3dd0bd4d	0.10192356
1	0x3e12311a	0.14276543
2	0xbcd352ad	-0.025796259
3	0xbc96bbd0	-0.018400103
4	0x3cec1b32	0.028821561
5	0x3b839dc6	0.004016611
6	0xbe69e599	-0.22841491
7	0xbe0d30cb	-0.13788144
8	0xbd73f1cf	-0.05955678
9	0xbdfcd28a	-0.12344845
10	0x3e43846b	0.19093482
11	0xbd476214	-0.04867752
12	0xbc883e70	-0.016631335
13	0xbd9bf200	-0.07614517
14	0xbcd07424	-0.025446005
15	0xbdab4f1e	-0.083647
16	0x3e34b15d	0.17645784
17	0xbd2243c3	-0.039615404
18	0xbe3f4390	-0.18678117
19	0x3d431631	0.047628585
20	0xbcf48589	-0.02984883
21	0x3d628df9	0.055311177
22	0xbcbe0f6e	-0.023200717
23	0xbd2fe543	-0.04294325
24	0xbe10af2b	-0.14129321
25	0x3b250630	0.002518069
26	0x3de329d5	0.11091963
27	0xbdb2bd5a	-0.08727522
28	0xbe72c2f3	-0.2370718
29	0xbc340bec	-0.0109891705
30	0x3dfb1c74	0.122612864
31	0xbe23b713	-0.15987806
32	0xbe0542b9	-0.13013734
33	0xbda3eeae	-0.08004509
34	0x3dae53d7	0.08512085
35	0xbc763a96	-0.015028616
36	0xbd6ef7d7	-0.058341827
37	0xbe128b4d	-0.14310952
38	0xbd20221f	-0.03909504
39	0x3d83c0f6	0.06433289
40	0xbe141efb	-0.14464943
41	0xbc553812	-0.0130138565
42	0xbd81d527	-0.06339484
43	0xbe60418b	-0.21900003
44	0xbe458d9f	-0.19292305
45	0x3c0c52de	0.008564679
46	0xbe2d12f4	-0.16901761
47	0xbe40c94b	-0.18826787
48	0xbe6c0371	-0.23048188
49	0x3db45092	0.0880443
50	0xbe5f248f	-0.2179129
51	0xbe7f43c3	-0.24928193
52	0x3ddb2509	0.10700423
53	0xbda561fe	-0.08075331
54	0xbd760eae	-0.060072593
55	0x3994d81c	0.00028389774
56	0xbd174098	-0.036926836
57	0x3d6fecf4	0.058575585
58	0xbd8d5991	-0.06901849
59	0xbcc93c0a	-0.024564762
60	0xbe677f61	-0.22607185
61	0xbd455c25	-0.04818358
62	0xbe13d5d1	-0.14437033
63	0xbc9df255	-0.019280592
64	0xbba77a6e	-0.0051110303
65	0x3da7a8a8	0.081864655
66	0xbe29dbc9	-0.16587748
67	0xbdfacd8d	-0.12246237
68	0x3d2f990e	0.042870574
69	0xbea67a11	-0.32515004
70	0xbd154bac	-0.03644912
71	0x3e4f04fd	0.20216747
72	0x3d7430af	0.05961674
73	0x3e0ff442	0.1405802
74	0x3e148e9d	0.14507528
75	0xbeb93e60	-0.361804
76	0xbd3e0cb2	-0.046398826
77	0x3d9603c1	0.07324935
78	0xbe1d82c8	-0.1538192
79	0xbd4f7eac	-0.050657913
80	0x3d609fed	0.054840017
81	0x3e354f67	0.17706071
82	0xbdbbd738	-0.09171909
83	0xbe450af7	-0.19242464
84	0x3dd0d617	0.101970844
85	0xbd88889a	-0.0666668
86	0x3b995ea5	0.004680472
87	0xbe339fde	-0.17541453
88	0x3e2ed591	0.17073657
89	0x3d75b431	0.059986297
90	0xbe25b84d	-0.16183586
91	0xbdf4e8d8	-0.11958474
92	0x3e10ca6f	0.14139722
93	0xbd63df41	-0.055632833
94	0x3db100da	0.086427405
95	0xbd3b2b1e	-0.045695417
96	0x3e2a2c56	0.16618475
97	0x3e0c33e2	0.13691667
98	0x3dec7a3e	0.11546753
99	0x3d833f60	0.06408572
100	0xbc9dc8e5	-0.019260833
101	0xbc8cfefc	-0.01721143
102	0x3c9900ec	0.018677197
103	0xbdeb1cfb	-0.11480137
104	0x3deb858c	0.115000814
105	0xbe3fd603	-0.18733983
106	0x3d88ebb0	0.06685579
107	0x3d6f1b28	0.058375508
108	0xbd00c262	-0.031435378
109	0x3cc28c3a	0.023748506
110	0x3def0b22	0.11672045
111	0x3db3b0a4	0.08773926
112	0xbdaf9523	-0.085733674
113	0xbe6d30fa	-0.23163214
114	0xbdda9aa1	-0.106740244
115	0xbccab5a2	-0.024744812
116	0xbd9b094a	-0.07570131
117	0xbe86ee07	-0.26353475
118	0x3dcac49f	0.09900784
119	0xbd002b15	-0.031291086
120	0xbe451b5a	-0.19248715
121	0x3e09bb9d	0.13450475
122	0x3ace514a	0.0015740779
123	0x3e032683	0.1280766
124	0xbe0312f4	-0.12800199
125	0xbcedf860	-0.029049098
126	0xbde7bc63	-0.11315229
127	0x3da258f6	0.07927124
128	0xbd101d27	-0.03518405
129	0xbdfb8344	-0.12280896
130	0x3e15329b	0.14570086
131	0x3e6ac82d	0.22927924
132	0xbdc32a54	-0.09529558
133	0xbc28c121	-0.010299952
134	0xbd8550aa	-0.06509526
135	0xbd159ada	-0.03652463
136	0x3d3bee98	0.045881838
137	0xbe2c1a69	-0.1680695
138	0xbcbeb7de	-0.023281034
139	0x3dfa76f1	0.122297175
140	0x3d54ca05	0.051950473
141	0x3d5fe7a4	0.05466427
142	0xbe13dff2	-0.14440897
143	0x3d83a3b0	0.06427705
144	0xbd41c7ef	-0.047309812
145	0xbc660b84	-0.0140408315
146	0xbe0101f0	-0.12598395
147	0x3e183789	0.14864935
148	0xbe3aeebf	-0.18255137
149	0xbda8a02e	-0.08233677
150	0xbe80321d	-0.25038233
151	0x3e843e30	0.25828695
152	0xbdd71c2e	-0.10503422
153	0x3d284f8f	0.041091498
154	0x3e1ea5fd	0.15493007
155	0xbe158b00	-0.14603806
156	0xbdfc0a2f	-0.1230663
157	0xbcea9d7c	-0.028639548
158	0x3d6e12ca	0.058123387
159	0xbdbb953c	-0.091593236
160	0x3e61b54d	0.22041817
161	0x3e5e4d11	0.21709086
162	0xbd99bd06	-0.075067565
163	0x3e29e8bb	0.16592686
164	0x3e8eb8b5	0.27875295
165	0x3e4593d7	0.19294678
166	0xbe104f39	-0.14092721
167	0xbd8821bc	-0.06647059
168	0xbe631109	-0.22174467
169	0x3c5fcfc7	0.013660378
170	0xbd214bdb	-0.039378982
171	0xbdabffa5	-0.0839837
172	0xbd571856	-0.052513443
173	0x3e1e8a77	0.15482508
174	0xbc329b01	-0.010901214
175	0xbd3c613f	-0.04599118
176	0xbe2a7515	-0.16646226
177	0xbe21f41c	-0.15815777
178	0x3da4f356	0.08054225
179	0x3ba9f3ad	0.005186519
180	0xbe63e26b	-0.2225434
181	0x3bf72baf	0.0075430493
182	0xbea2a49c	-0.31766212
183	0xbe1064a8	-0.14100897
184	0xbe6c93ec	-0.23103303
185	0x3e387533	0.18013458
186	0xbb854b34	-0.004067803
187	0xbe06258f	-0.13100265
188	0xbe54991e	-0.20761535
189	0x3e8f974b	0.28045115
190	0xbd262e67	-0.040571596
191	0xbd417d81	-0.04723883
192	0x3d6afeac	0.05737178
193	0xbda80e76	-0.08205883
194	0xbc2fbbab	-0.010725896
195	0xbdf65d0a	-0.120294645
196	0xbd802b4c	-0.06258258
197	0x3e2c0761	0.1679969
198	0xbdc81904	-0.09770396
199	0x3d1fea50	0.039041817
200	0x3e3011c1	0.17194273
201	0x3de44ed5	0.111478485
202	0xbd07e743	-0.033179533
203	0xbcebd797	-0.028789325
204	0x3d61ee43	0.055158865
205	0xbe90d62f	-0.2828841
206	0x3cd57b66	0.026059818
207	0xbe654c93	-0.22392492
208	0x3de02673	0.109448336
209	0x3e7f678e	0.24941847
210	0x3e0f021a	0.13965645
211	0xbd90531f	-0.07047104
212	0x3e0b012d	0.13574667
213	0x3e6de54a	0.23231998
214	0x3db7fcb4	0.08983746
215	0x3c9ad239	0.01889907
216	0x3e31b202	0.17353061
217	0xbd5635c3	-0.052297365
218	0xbe8efef3	-0.27928886
219	0xbe266180	-0.16248131
220	0x3dcbc1d9	0.09949083
221	0xbe6864b3	-0.22694664
222	0x3d944139	0.07239003
223	0xbd290796	-0.041267
224	0x3c6a6575	0.014306416
225	0x3e094245	0.13404186
226	0x3d5df4ce	0.054188542
227	0x3cd5f503	0.026117807
228	0xbd4d2354	-0.05008252
229	0x3de86eac	0.11349234
230	0xbe866368	-0.26247716
231	0xbdeb1d49	-0.11480195
232	0xbde0df9e	-0.109801516
233	0xbddc7eba	-0.10766359
234	0x3e430601	0.19045259
235	0x3e306097	0.17224346
236	0xbe07b7f6	-0.1325377
237	0x3c943f0b	0.018096467
238	0xbccb8dd2	-0.024847899
239	0xbd7a764b	-0.06114797
240	0xbdd92b9b	-0.1060402
241	0xbe4f1458	-0.20222604
242	0xbe3870b4	-0.18011743
243	0x3e61e7c9	0.22061075
244	0xbd80041e	-0.06250785
245	0x3d019f06	0.031645797
246	0xbde8c2af	-0.11365258
247	0x3dd93d4a	0.10607393
248	0xbde1e504	-0.110300094
249	0x3e63713e	0.22211167
250	0x3aee4d60	0.0018181019
251	0x3db65eb5	0.08904783
252	0xbe70b761	-0.23507454
253	0x3e03a704	0.1285668
254	0xbe5208b0	-0.20511127
255	0xbdcf4dc3	-0.10122254

lstm.bias_ih_l0 f4 [128]
0	0xbd18118b	-0.037126105
1	0xbd757b54	-0.059932068
2	0xbe02bed4	-0.12768108
3	0x3d254177	0.040345635
4	0x3ca803bf	0.020509599
5	0xbdd4afed	-0.10385118
6	0xbb9437fa	-0.0045232745
7	0xbe0bd637	-0.13655935
8	0xbd01a7fc	-0.031654343
9	0xbc141e0d	-0.009040368
10	0x3de53c49	0.11193139
11	0x3dc52a92	0.0962726
12	0xbd872bd7	-0.06600159
13	0x3d95c278	0.073124826
14	0x3ea15ceb	0.31516203
15	0x3cb71736	0.022349935
16	0xbe2b1fbc	-0.16711324
17	0x3ea12d5d	0.31479922
18	0x3e12d045	0.14337261
19	0x3d64b628	0.05583778
20	0xbd59b795	-0.053153593
21	0x3d681201	0.056657795
22	0x3e5041bc	0.20337576
23	0xbd8a8b31	-0.0676483
24	0x3dc439af	0.09581315
25	0xbe03b01b	-0.12860148
26	0xbe52535d	-0.20539613
27	0xbe0e5575	-0.13899787
28	0x3c0e52f3	0.008686769
29	0x3d464779	0.048408005
30	0xbd790764	-0.060798064
31	0x3e164a48	0.14676774
32	0x3e7d84bf	0.2475767
33	0x3e298323	0.16553931
34	0x3e9c7584	0.30558407
35	0x3df384bd	0.11890552
36	0xbd27563b	-0.04085372
37	0x3d8bfdb8	0.068355024
38	0x3edc6d20	0.43052006
39	0xbe06f4af	-0.13179277
40	0xbc328b57	-0.010897479
41	0x3e8c5d83	0.27415094
42	0x3e057168	0.13031542
43	0xbd48b9d7	-0.049005356
44	0x3ea616d3	0.32439288
45	0xbde6d43a	-0.11270948
46	0x3e98e388	0.29861093
47	0x3e01df9c	0.12682956
48	0xbe3ebce8	-0.1862675
49	0x3e2e3527	0.17012464
50	0x3da670dd	0.08126996
51	0xbdc88d53	-0.097925805
52	0x3e88adb2	0.2669502
53	0xbdf6230a	-0.12018402
54	0xbcf268e7	-0.029591037
55	0xbe023b1d	-0.12717862
56	0x3e55d8b5	0.20883448
57	0xbe334c60	-0.17509604
58	0x3ec98713	0.39360866
59	0x3ee6943b	0.45034966
60	0x3e8e6b06	0.27816027
61	0xbd4cb560	-0.04997766
62	0x3e61c634	0.22048265
63	0x3f1ea7e9	0.6197496
64	0xbe401d7e	-0.1876125
65	0x3e214956	0.15750632
66	0xbd4009af	-0.046884235
67	0x3c09b5e0	0.008405179
68	0x3dcc9a55	0.09990374
69	0x3e017c2d	0.12645026
70	0xbd88f053	-0.06686463
71	0x3d3e6dff	0.04649162
72	0xbde9c4ff	-0.11414527
73	0xbd7fc7f2	-0.062446542
74	0x3e467220	0.19379473
75	0x3d679077	0.056534257
76	0xbe0b07e8	-0.13577235
77	0xbdad08c2	-0.08448936
78	0x3d8fb97f	0.070178024
79	0x3dc556e5	0.096357144
80	0x3d823941	0.063585766
81	0x3d9dd335	0.077063
82	0xbda054b6	-0.07828657
83	0x3e610b9a	0.21977082
84	0x3bde397a	0.006781754
85	0xbda21fe5	-0.0791624
86	0x3daa097c	0.0830259
87	0x3d1a5e02	0.03768731
88	0xbe8e3d28	-0.27781034
89	0xbd66ae17	-0.05631837
90	0x3d35e09d	0.04440366
91	0xbcf43ec2	-0.029815082
92	0xbe60003d	-0.21875091
93	0xbc8cbfa0	-0.017181218
94	0xbe4e8fc6	-0.20172033
95	0x3d52021e	0.05127155
96	0x3dc62cc4	0.09676507
97	0xbd31fd67	-0.043454554
98	0xbd5afb43	-0.053462278
99	0xb9a2367e	-0.00030939648
100	0xbd5d93de	-0.054096095
101	0xbac624f0	-0.0015117209
102	0x3dda5227	0.106602006
103	0xbd5a75af	-0.053334888
104	0xbe17976d	-0.14803858
105	0x3d11bbfc	0.035579666
106	0x3eb5bd36	0.3549592
107	0x3e615a2c	0.22007054
108	0x3d1574d8	0.036488384
109	0x3e2eca65	0.17069395
110	0x3e85be95	0.26121965
111	0x3cddef48	0.027091637
112	0xbdea333d	-0.11435554
113	0x3e17b83f	0.14816378
114	0x3c1bf319	0.009518408
115	0x3e2c083c	0.16800016
116	0x3e50929a	0.20368424
117	0x3ca159c1	0.019696118
118	0x3dd9684b	0.106155954
119	0xbd1c0221	-0.038087968
120	0x3e828d52	0.25498444
121	0xbc3a3d23	-0.011367115
122	0x3e886c3d	0.2664508
123	0xbc0115d2	-0.0078787375
124	0x3c0b67e1	0.008508653
125	0x3e57fa8c	0.2109167
126	0x3d4c4761	0.04987276
127	0xbd0dc786	-0.03461411

lstm.bias_hh_l0 f4 [128]
0	0xbc7ba2df	-0.015358656
1	0xbb91a16f	-0.004444293
2	0x3e31bb19	0.17356528
3	0xbdb7cc72	-0.08974542
4	0x3db0b67c	0.08628556
5	0x3e0f2537	0.1397904
6	0xbe1ea387	-0.15492068
7	0x3ddde2e4	0.108342916
8	0xbe16e7cd	-0.14736862
9	0x3e329035	0.17437823
10	0xbd4fc721	-0.050727013
11	0xbd3101b5	-0.04321452
12	0xbcad6d40	-0.021170259
13	0x3e04f181	0.12982751
14	0x3ddfb06c	0.10922322
15	0x3c67313c	0.0141108595
16	0x3de24b80	0.11049557
17	0x3dc43c98	0.0958187
18	0x3e43a2a6	0.19105014
19	0xbdc6d005	-0.09707645
20	0x3b5228bd	0.003206774
21	0x3e0092d0	0.12556005
22	0x3dcbba80	0.099476814
23	0xbda65dc7	-0.08123355
24	0x3d364f1a	0.04450903
25	0x3d984039	0.074341245
26	0xbe27de33	-0.16393356
27	0x3df45e8c	0.11932096
28	0x3cbe42a5	0.023225138
29	0x3e5a02a0	0.21290064
30	0x3d99f70a	0.07517822
31	0x3e3a8df8	0.1821822
32	0x3e85caca	0.26131278
33	0x3dcf3b9b	0.10118791
34	0x3ebb3dd6	0.36570615
35	0xbd03567b	-0.032064896
36	0x3aef1c81	0.0018242748
37	0x3dd568e8	0.104204
38	0x3ecdd25a	0.40199548
39	0xbcbac17b	-0.022797337
40	0xbd42c42e	-0.047550373
41	0x3e208fdc	0.15679878
42	0x3eb94d77	0.36191913
43	0x3e8ef050	0.2791772
44	0x3e8adb57	0.27120468
45	0x3e132d34	0.14372712
46	0x3efc2c9f	0.49252793
47	0x3dba27b8	0.09089607
48	0xbe365628	-0.17806304
49	0x3e2ed9f5	0.17075332
50	0x3e02c442	0.12770179
51	0xbdc399f1	-0.09550846
52	0x3e85bde2	0.26121432
53	0x3e263a45	0.16233166
54	0x3e64a5a1	0.22328807
55	0xbd15cb36	-0.03657075
56	0x3c3a9401	0.011387826
57	0xbbad6582	-0.0052916417
58	0x3e2405a4	0.16017777
59	0x3e780d42	0.24223807
60	0x3dc073dd	0.09397099
61	0x3e12701f	0.14300583
62	0xbd316305	-0.043307323
63	0x3f3fc557	0.7491049
64	0xbd991869	-0.07475359
65	0xbd1b6b72	-0.037944265
66	0x3e94f708	0.2909472
67	0x3e32f9a4	0.17478043
68	0xbbcb913f	-0.006212383
69	0xbcf55635	-0.029948333
70	0x3cd2539d	0.025674636
71	0xbcb64d3e	-0.022253629
72	0x3d150cee	0.036389284
73	0xbd341d3b	-0.04397319
74	0x3e947056	0.28991956
75	0x3d55a310	0.05215746
76	0xbe2484dc	-0.16066307
77	0x3da5e6c2	0.08100654
78	0x3e83278f	0.25616118
79	0xbd62b471	-0.055347864
80	0xbd975e04	-0.07390979
81	0xbe84e1c5	-0.25953498
82	0x3dd1f94a	0.10252626
83	0x3dd54c96	0.10414998
84	0xbd622117	-0.05520734
85	0xbe2c7744	-0.16842371
86	0xbddef9a6	-0.108874604
87	0x3d0a6966	0.033791922
88	0xbd7b4da1	-0.06135333
89	0x3cad9592	0.021189485
90	0x3e07533e	0.13215348
91	0xbe08eed5	-0.13372357
92	0xbe2a83cb	-0.16651838
93	0x3e1bb2c9	0.1520492
94	0x3d63cc8a	0.055614986
95	0xbd58ab26	-0.052897595
96	0x3c41cb56	0.011828264
97	0xbe1e1390	-0.1543715
98	0x3dfbaf83	0.122893356
99	0x3de2517a	0.11050697
100	0xbdd720a4	-0.105042726
101	0x3e54b5ae	0.2077243
102	0x3e1022d9	0.14075793
103	0xbe11230d	-0.14173527
104	0xbc75934c	-0.014988732
105	0x3dd969e7	0.106159024
106	0x3d1d04d8	0.038334697
107	0x3ce4c923	0.02792794
108	0x3e208c22	0.15678456
109	0xbe059fcd	-0.1304924
110	0xbc22c569	-0.009934762
111	0x3dbb8de5	0.091579236
112	0x3d69c54e	0.05707293
113	0x3ec80938	0.39069533
114	0x3da0a594	0.078440815
115	0x3dd955f3	0.10612097
116	0x3e58a03a	0.21154872
117	0x3e01a17e	0.1265926
118	0x3e39af03	0.18133168
119	0xbc3fea59	-0.011713588
120	0x3c0f856b	0.008759837
121	0x3d6b010f	0.057374056
122	0x3d39b3f1	0.04533762
123	0x3e80fb6a	0.25191814
124	0x3e1b246b	0.15150611
125	0x3dee6e4e	0.11642133
126	0x3e09cfff	0.1345825
127	0x3e8a97ec	0.27069032

lstm.weight_ih_l0_reverse f4 [128, 1]
0	0xbe3a377b	-0.18185227
1	0x3e2cff34	0.16894227
2	0x3e84386b	0.25824293
3	0x3d51adac	0.051191017
4	0xbe481a44	-0.1954127
5	0xbe1af2f4	-0.15131742
6	0xbe866117	-0.2624595
7	0xbe757df5	-0.2397383
8	0x3e8ac9ff	0.27107236
9	0x3d863a13	0.065540455
10	0xbeaee463	-0.3415862
11	0xbe5659fe	-0.20932767
12	0xbe95fb5b	-0.29293332
13	0xbec5deba	-0.3864649
14	0xbe4a8b65	-0.19779737
15	0x3f0d22ae	0.5513104
16	0xbe57609d	-0.21032949
17	0xbea16d4d	-0.31528702
18	0x3e89a236	0.2688157
19	0x3e561618	0.20906866
20	0xbd6e5e2a	-0.05819527
21	0x3ed256ac	0.4108175
22	0x3db3f258	0.08786458
23	0x3f02f71d	0.51158315
24	0xbd735375	-0.059405763
25	0x3ca869db	0.020558288
26	0x3ec6c05b	0.3881863
27	0xbea5d331	-0.3238769
28	0x3dc8104c	0.097687334
29	0x3dc0b67b	0.094098054
30	0x3ee1807a	0.44043332
31	0xbea0c284	-0.31398404
32	0x3e3ef8e7	0.18649636
33	0x3c9b2deb	0.018942794
34	0x3ebb636a	0.36599284
35	0x3e749d50	0.23888135
36	0xbe95dc52	-0.29269654
37	0x3e6682b7	0.22510801
38	0xba0b9d72	-0.00053258904
39	0xbd142a34	-0.03617306
40	0x3cd8664c	0.026415966
41	0x3e0b693d	0.13614364
42	0xbd3f1a62	-0.04665602
43	0xbe468ae6	-0.19388923
44	0xbda52303	-0.080633186
45	0x3e8c8b46	0.27450007
46	0xbdd71b8d	-0.10503302
47	0x3f38200b	0.71923894
48	0x3dda91a4	0.1067231
49	0xbe1633ee	-0.14668247
50	0x3ec919a9	0.3927739
51	0x3debd88c	0.115159124
52	0xbd07d761	-0.033164386
53	0x3e94daee	0.2907328
54	0xbe6d3063	-0.2316299
55	0x3f251257	0.6448111
56	0xbdb0a540	-0.08625269
57	0xbebd59f6	-0.36982697
58	0x3e6c9604	0.23104101
59	0xbd0bdf42	-0.034148462
60	0x3d4d4ec4	0.050123945
61	0x3e383798	0.17989957
62	0xbd44401e	-0.04791271
63	0xbdc7a8f0	-0.09749019
64	0x3e054c32	0.13017347
65	0x3ebfc003	0.3745118
66	0x3e258889	0.16165365
67	0x3ebf99c9	0.37422016
68	0x3e6403fd	0.22267146
69	0x3e316783	0.17324643
70	0x3e8ae6bf	0.2712917
71	0xbeec4bff	-0.4615173
72	0xbb8f6932	-0.004376554
73	0xbeb822fe	-0.35964197
74	0x3e49d919	0.19711722
75	0xbdef9e05	-0.11700062
76	0xbe0d18bb	-0.13778965
77	0xbcd7ebc2	-0.026357535
78	0xbe4fd5fa	-0.2029647
79	0xbe89c769	-0.2690995
80	0x3d7de90a	0.06198982
81	0xbe8ebea7	-0.2787983
82	0x3e8abf63	0.2709914
83	0xbe94b5b7	-0.29044887
84	0xbd9d0089	-0.07666118
85	0xbece9237	-0.40345928
86	0xbde75314	-0.11295143
87	0xbed94492	-0.42435127
88	0x3e8a4534	0.27005923
89	0x3d9a8b34	0.07546082
90	0xbf03eef0	-0.51536465
91	0x3e810c34	0.25204623
92	0x3eb288e0	0.34870052
93	0xbde7c0d3	-0.11316075
94	0x3f0825d1	0.53182703
95	0xbe8e0ffe	-0.27746576
96	0x3e6ccef0	0.23125815
97	0xbec0eb95	-0.37679735
98	0x3e4bbbae	0.19895813
99	0x3e673f77	0.22582804
100	0xbecbf305	-0.39833847
101	0xbd56cea3	-0.052443158
102	0x3cee0c39	0.029058563
103	0x3e05f976	0.13083443
104	0x3cd27672	0.025691245
105	0xbd82ebdf	-0.06392645
106	0xbeb806b1	-0.35942605
107	0xbf1ee925	-0.620745
108	0xbe1c720d	-0.15277882
109	0x3b52aec2	0.003214762
110	0xbe195493	-0.14973669
111	0x3f292c9f	0.6608371
112	0xbca112d4	-0.019662298
113	0xbee0b4d3	-0.43887958
114	0x3f029fb8	0.5102496
115	0x3e7e07cc	0.24807662
116	0xbe37739d	-0.17915197
117	0x3dd30430	0.10303533
118	0xbdbcb48d	-0.09214125
119	0x3cd6d79a	0.026225854
120	0xbe9eacbf	-0.3099117
121	0xbeba0705	-0.3633348
122	0xbb52a8fc	-0.003214418
123	0xbf0fe7a6	-0.5621284
124	0xbea7ebad	-0.32796994
125	0x3ee09e8c	0.43870962
126	0x3e53c8dd	0.20682092
127	0xbef86b41	-0.48519328

lstm.weight_hh_l0_reverse f4 [128, 32]
0	0xbd4828dd	-0.048867095
1	0x3e26de45	0.16295727
2	0x3de08626	0.10963087
3	0x3ddaad50	0.10677588
4	0xbc93b7a8	-0.01803191
5	0x3e39f8e4	0.1816135
6	0x3e235dbc	0.15953726
7	0xbe36607a	-0.1781024
8	0x3d6c5b60	0.05770433
9	0xbdef28eb	-0.11677726
10	0x3d12f10c	0.03587441
11	0x3e6254f4	0.2210272
12	0xbe32abcd	-0.1744835
13	0xbead6b31	-0.33870843
14	0x3e00dcae	0.12584183
15	0xbdd155cd	-0.10221443
16	0xba8ad574	-0.0010592178
17	0x3e0053e5	0.12532003
18	0xbe29992f	-0.16562341
19	0x3e4d87af	0.2007129
20	0xbc908363	-0.017640775
21	0xbd998145	-0.07495359
22	0x3a22e6fb	0.00062142283
23	0x3da1d461	0.07901836
24	0x3e84ccfc	0.2593764
25	0x3d1196d2	0.035544224
26	0xbe4ce8fa	-0.20010749
27	0x3dff19cb	0.124560915
28	0xbd0b3713	-0.03398807
29	0x3e48e4ee	0.1961858
30	0x3b818a88	0.003953282
31	0xbc30f3b1	-0.010800288
32	0xbe06e397	-0.13172756
33	0xbdc76d88	-0.09737688
34	0x3deac3b1	0.114631064
35	0x3e6ebf48	0.23315156
36	0x3db7bffb	0.08972164
37	0x3ddb423b	0.10705992
38	0x3ea25775	0.3170735
39	0xbca5895d	-0.020207101
40	0xbe62d37b	-0.22150986
41	0xbe038236	-0.1284264
42	0x3d98fb36	0.0746979
43	0x3de91f58	0.113829315
44	0xbe54144b	-0.20710866
45	0xbd5ca602	-0.053869255
46	0xbe210d8d	-0.15727825
47	0xbdb0c2bd	-0.086308934
48	0x3e271760	0.1631751
49	0x3d7fc09e	0.062439553
50	0x3e474148	0.19458497
51	0x3ec9e1e5	0.39430156
52	0x3e5bf462	0.21479943
53	0xbda4f3a4	-0.08054283
54	0xbcc8caa0	-0.024510682
55	0xbe2452b3	-0.16047172
56	0x3e3424ed	0.17592211
57	0xbd014c63	-0.03156699
58	0x3c945c75	0.018110493
59	0x3cb2e386	0.021837007
60	0x3e1d2e3e	0.15349671
61	0x3e909df6	0.28245515
62	0x3db391f8	0.08768076
63	0xbd9ebaa7	-0.07750445
64	0xbe55fb5d	-0.20896669
65	0x3ee0cf43	0.43908128
66	0x3df34df1	0.118801005
67	0xbb9aced9	-0.004724365
68	0xbc9c0520	-0.019045413
69	0x3dcd563b	0.10026213
70	0x3e0336d8	0.1281389
71	0x3d772434	0.06033726
72	0x3d85a191	0.06524957
73	0xbe5f67fa	-0.21817008
74	0x3e01ea64	0.12687069
75	0xbe6edc65	-0.23326261
76	0xbdc9541c	-0.09830496
77	0xbe3dcf98	-0.18536222
78	0xbd04f37d	-0.03245877
79	0xbe92d93d	-0.28681365
80	0x3d8c452a	0.068491295
81	0xbe1ed0fe	-0.15509412
82	0x3e8e8053	0.2783228
83	0xbc807832	-0.015682314
84	0x3dbae48a	0.091256216
85	0x3e35b6f6	0.17745575
86	0x3d22fdf0	0.039792955
87	0xbe31840e	-0.17335531
88	0x3e5264ec	0.20546311
89	0x3c6b5862	0.014364334
90	0x3e571de6	0.21007499
91	0xbc6b1d0c	-0.014350187
92	0x3e741a99	0.23838271
93	0x3db6433c	0.08899543
94	0xbd3f7ef4	-0.04675193
95	0xbe8d9a0c	-0.2765659
96	0x3da8b477	0.08237546
97	0x3da6989d	0.081345774
98	0xbdb7e655	-0.08979479
99	0x3d619717	0.05507573
100	0xbe49296f	-0.19644712
101	0x3da87e23	0.08227184
102	0xbaf7ec40	-0.0018915012
103	0xbe55733b	-0.20844738
104	0xbe123010	-0.14276147
105	0xbe5914fe	-0.21199414
106	0x3de6021a	0.112308696
107	0xbe863292	-0.26210457
108	0x3d394e76	0.04524084
109	0x3eaecba1	0.34139732
110	0xbe77f584	-0.2421475
111	0xbe83a19f	-0.25709245
112	0x3c6ec572	0.014573442
113	0xbe02f692	-0.12789372
114	0x3e67c5e9	0.2263409
115	0x3e94d614	0.2906958
116	0xbe8897ff	-0.26678464
117	0x3da747dc	0.08168003
118	0xbc459933	-0.012060451
119	0xbd8dca89	-0.06923396
120	0x3dbc27f3	0.09187307
121	0x3e99facb	0.30074152
122	0x3e78f45c	0.24311966
123	0x3e933599	0.2875183
124	0xbc9cdf93	-0.019149577
125	0x3eabd3ba	0.33559972
126	0x3e265e93	0.16247015
127	0xbea9530b	-0.3307117
128	0xbd3ee37f	-0.046603676
129	0x3d2f75e9	0.042837057
130	0xbe4425a7	-0.19154988
131	0xbdf10a62	-0.117695585
132	0x3d570f04	0.052504554
133	0xbe53c248	-0.20679581
134	0xbd8a3ecc	-0.06750259
135	0x3ebf625c	0.3737973
136	0x3e028ff2	0.12750223
137	0xbc86a240	-0.016434789
138	0xbdda75e9	-0.10667021
139	0x3e01fa24	0.12693077
140	0xbd447d85	-0.047971267
141	0xbe12abc4	-0.14323336
142	0x3d8ab64c	0.067730516
143	0xbd5f69ae	-0.054544143
144	0x3d3950e3	0.045243155
145	0xbe55f21e	-0.20893142
146	0xbd7adfc5	-0.06124856
147	0xbd1f5dfd	-0.038907994
148	0x3e1033af	0.14082216
149	0xbb8bc659	-0.0042655882
150	0x3c3a5a6a	0.011374095
151	0x3e06405e	0.13110492
152	0x3e0776c4	0.13228899
153	0x3da1c7bd	0.07899425
154	0x3e4f7f93	0.2026351
155	0x3dd13b96	0.10216443
156	0xbd68df26	-0.056853436
157	0xbe129692	-0.1431525
158	0xbe3e2a2a	-0.18570772
159	0xbdc65d2d	-0.096857406
160	0xbdd14265	-0.10217742
161	0x3e53ea9e	0.20694968
162	0x3e412b82	0.18864253
163	0x3dff4510	0.124643445
164	0xbd85a257	-0.065251045
165	0x3e1e8bd7	0.15483032
166	0x3e7dee3e	0.24797913
167	0x3c8bffcc	0.017089747
168	0xbc413204	-0.01179171
169	0x3d1b8bee	0.037975244
170	0xbd51e8d7	-0.051247444
171	0x3d4c13b2	0.04982347
172	0x3e31f1a8	0.17377341
173	0xbebc7f14	-0.36815703
174	0x3d27f224	0.041002408
175	0xbe6ad69d	-0.22933431
176	0x3e89e7fc	0.26934803
177	0xbe1940c1	-0.14966108
178	0xbd216c29	-0.03940979
179	0x3d061a7a	0.032740094
180	0x3d8e2873	0.06941309
181	0xbe4afb06	-0.1982232
182	0x3e2ce0bb	0.16882603
183	0xbe8bc697	-0.2729995
184	0xbdcd4d0a	-0.1002446
185	0x3d07ce7d	0.033155907
186	0xbdaaceb6	-0.08340208
187	0x3e59e782	0.2127972
188	0x3e850717	0.25981972
189	0x3d06d2db	0.03291593
190	0xbe07b6e4	-0.13253361
191	0x3e0915ed	0.1338727
192	0xbe6d8c34	-0.23198014
193	0x3defead6	0.11714713
194	0x3def9a00	0.11699295
195	0xbe012dac	-0.12615079
196	0x3da7b223	0.08188274
197	0x3df6f526	0.12058477
198	0x3e4f09c3	0.20218568
199	0xbcf3ab9a	-0.029744912
200	0xbe845f18	-0.258538
201	0xbd905ec7	-0.07049327
202	0xbd92fdc5	-0.07177309
203	0xbc9232a8	-0.01784642
204	0xbe721b8f	-0.23643325
205	0xbd8eb362	-0.06967808
206	0xbd58654e	-0.052830987
207	0x3c052c82	0.008128287
208	0xbd09cd7f	-0.033643242
209	0xbd3f62c6	-0.046725057
210	0xbd016d10	-0.03159815
211	0xbdde3b33	-0.10851135
212	0x3c1f6579	0.009728783
213	0xbe82596c	-0.25458848
214	0xbdb073f8	-0.08615869
215	0x3ce8e7ab	0.02843078
216	0x3cfed0c2	0.031105403
217	0xbd33c326	-0.04388728
218	0xbdafefa6	-0.08590631
219	0xbdfaa737	-0.12238925
220	0x3df5caab	0.120015465
221	0xbddd6c22	-0.1081164
222	0x3dfd235f	0.12360262
223	0x3dd2c34c	0.10291156
224	0x3d5327f3	0.05155177
225	0x3d8b7a0f	0.0681039
226	0x3e4abbfe	0.19798276
227	0xbe15c1ce	-0.14624712
228	0x3c26f425	0.0101900445
229	0xbdb12416	-0.08649461
230	0x3da7711f	0.08175873
231	0x3d63f5ef	0.055654462
232	0x3d14d3f8	0.03633496
233	0x3e044c65	0.12919767
234	0xbd94f33e	-0.07272957
235	0x3d507765	0.050895113
236	0xbe84cf90	-0.25939608
237	0xbe9d11f5	-0.30677763
238	0x3cd33995	0.025784293
239	0x3d893b5c	0.06700775
240	0x3ccb74c3	0.02483595
241	0xbe62d6fd	-0.22152324
242	0x3d8a7d9d	0.0676224
243	0x3e33cac7	0.17557822
244	0xbe586b7e	-0.21134755
245	0xbe24b7db	-0.1608576
246	0xbce8175b	-0.02833145
247	0x3d896acd	0.06709824
248	0x3d5a5f0d	0.053313304
249	0xbb8d1aba	-0.0043061646
250	0x3d8a7412	0.0676042
251	0xbb83369a	-0.0040043117
252	0x3e197720	0.14986849
253	0x3de33b04	0.11095241
254	0xbe7a004d	-0.24414177
255	0xbe4f8eca	-0.20269313

lstm.bias_ih_l0_reverse f4 [128]
0	0xbd3f264f	-0.046667393
1	0x3d5d3b18	0.054011434
2	0x3e66f46e	0.2255418
3	0xbc7672b9	-0.015042
4	0x3e64bc0a	0.22337356
5	0x3dba3f75	0.09094135
6	0x3dec0415	0.11524216
7	0xbda9a200	-0.08282852
8	0xbd798218	-0.060915083
9	0x3d8b0c74	0.067894846
10	0x3eb00191	0.34376195
11	0x3e4fae24	0.20281273
12	0x3e5a650b	0.21327607
13	0xbe873945	-0.2641088
14	0xbdbc56d0	-0.09196246
15	0xbda79f67	-0.081847005
16	0x3db33d6f	0.08751952
17	0x3de92c61	0.11385418
18	0x3cb6d3d4	0.022317804
19	0x3c27bc2e	0.010237737
20	0x3e0940dc	0.13403648
21	0xbe4576be	-0.19283578
22	0x3db307c3	0.08741715
23	0x3cb4843d	0.022035712
24	0x3d873246	0.06601386
25	0xbc868815	-0.01642231
26	0x3e380de3	0.17974047
27	0x3e3a5e64	0.1820007
28	0xbde09dca	-0.10967596
29	0xbdf645bd	-0.1202502
30	0x3ca2defc	0.019881718
31	0xbd3af528	-0.045643955
32	0x3e5571b1	0.20844151
33	0x3f059294	0.52176785
34	0x3ea78e1d	0.3272561
35	0xbceba96f	-0.028767316
36	0x3e0d4f8f	0.1379988
37	0x3d9350dc	0.07193157
38	0xbdca53d5	-0.09879271
39	0x3e92a6d7	0.28642914
40	0xbdb267ab	-0.08711179
41	0x3d93f838	0.07225078
42	0xbc0274bf	-0.007962405
43	0x3e9921b8	0.29908538
44	0x3e8cae79	0.27476862
45	0xbd4151a2	-0.04719699
46	0x3c17d59d	0.009267238
47	0x3d9a247f	0.07526492
48	0x3e98eb3f	0.2986698
49	0x3afc7c01	0.001926303
50	0x3d85e13f	0.06537103
51	0x3eab3670	0.3343997
52	0xbdfcd442	-0.123451725
53	0x3e2ab9bc	0.16672415
54	0xbd83a83b	-0.06428572
55	0xbdb009d7	-0.08595627
56	0x3caf514d	0.021401072
57	0x3d4191fe	0.04725837
58	0x3d5d1773	0.05397744
59	0x3dbca433	0.09211006
60	0xbcefb308	-0.029260173
61	0x3da12eb6	0.078702375
62	0x3c6a1f86	0.014289742
63	0x3dc96635	0.098339476
64	0x3d909778	0.0706014
65	0x3de91783	0.11381438
66	0x3d5538f6	0.052056275
67	0x3e3765f5	0.17909987
68	0x3de0f49c	0.109841555
69	0x3d25f35c	0.04051529
70	0x3e7ab6c0	0.24483776
71	0xbd9c9cbb	-0.076470815
72	0x38c40f54	9.3488634e-05
73	0xbcf9cbbd	-0.030492658
74	0x3ababded	0.0014247276
75	0x3e432b1b	0.19059412
76	0xbe3e0f75	-0.18560584
77	0x3c70bc22	0.014693292
78	0xbe068cf3	-0.13139705
79	0xbd855683	-0.065106414
80	0x3d8e5ec1	0.069516666
81	0xbdeada70	-0.11467445
82	0x3e11c849	0.14236559
83	0x3d82143c	0.06351516
84	0x3dd1b3ce	0.10239373
85	0x3d9af3a7	0.07566004
86	0xbd2c30b4	-0.042038634
87	0xbe472ac1	-0.19449903
88	0xbdcd2fc4	-0.10018876
89	0xbd060504	-0.032719627
90	0xbd3290ee	-0.043595247
91	0xbd809d36	-0.062799856
92	0x3e2e868f	0.17043518
93	0x3e196cc3	0.14982896
94	0xbe5269ba	-0.20548144
95	0xbb032c4a	-0.0020015412
96	0x3e861c38	0.26193404
97	0x3e38a19e	0.18030402
98	0x3ea32006	0.3186037
99	0xbe30f007	-0.17279063
100	0xbba83854	-0.005133668
101	0x3e25927f	0.16169165
102	0x3c1e26f5	0.009652843
103	0x3e8e9992	0.2785154
104	0x3e0a7f2c	0.13525075
105	0x3d1e4125	0.038636345
106	0x3e9740bb	0.29541573
107	0x3dae1a4a	0.08501108
108	0x3de3bb31	0.11119688
109	0x3ee27238	0.44227767
110	0xbd6dcf9c	-0.05805932
111	0x3b7bd7f4	0.0038428279
112	0x3e99a5ed	0.30009404
113	0x3cce1d5e	0.025160488
114	0xbdba4a62	-0.09096219
115	0x3e0601ac	0.13086575
116	0x3e0d7e89	0.138178
117	0x3dfde159	0.12396497
118	0x3ebe2fe9	0.37145928
119	0xbb0848f4	-0.0020795437
120	0x3e6e5fc1	0.23278715
121	0x3e00990a	0.1255838
122	0x3dd30550	0.10303748
123	0x3e896499	0.26834562
124	0x3e4eeb2c	0.20206898
125	0x3df0fba9	0.1176675
126	0x3d8b37b6	0.067977354
127	0x3d94c9f0	0.07265079

lstm.bias_hh_l0_reverse f4 [128]
0	0xbc519319	-0.0127914185
1	0x3e545d83	0.20738797
2	0xbdce24ae	-0.1006559
3	0xbe37b430	-0.1793983
4	0x3e91d4fb	0.28482804
5	0x3e08f190	0.13373399
6	0xbdd191fd	-0.10232923
7	0x3c8d7580	0.017267942
8	0x3ce44aeb	0.027867755
9	0xbdb76d22	-0.08956362
10	0x3e52f1b7	0.2060002
11	0x3e0deb36	0.13859257
12	0x3da967fa	0.08271785
13	0xbe0e7829	-0.13913025
14	0xbdea8bb2	-0.11452426
15	0x3e62154d	0.22078438
16	0xbe06375c	-0.13107055
17	0x3e829891	0.25507024
18	0xbe18d362	-0.14924386
19	0xbc50177a	-0.01270091
20	0x3ca47baa	0.020078499
21	0xbcc4c7e0	-0.02402109
22	0xbdf6a755	-0.12043635
23	0x3e63e865	0.2225662
24	0x3dc2feef	0.09521281
25	0xbe519bf9	-0.20469655
26	0xbdf375a6	-0.11887674
27	0x3e905947	0.28193113
28	0x3d7fb65f	0.062429782
29	0xbea19135	-0.31556097
30	0x3d009bf5	0.031398732
31	0x3ad4d57d	0.0016237941
32	0x3e97edea	0.29673702
33	0x3eca631f	0.39528748
34	0x3e588305	0.2114373
35	0xbe16fb9a	-0.14744416
36	0x3e02cc0f	0.12773155
37	0x3de2e304	0.11078456
38	0xbd83b970	-0.06431854
39	0x3e57413e	0.21020982
40	0xbda304e9	-0.07959921
41	0xbdea9ada	-0.11455317
42	0xbdf55b48	-0.11980301
43	0x3e8df218	0.27723765
44	0x3e28a200	0.16468048
45	0x3e683990	0.22678208
46	0xbd471f95	-0.048614103
47	0x3d845b9f	0.06462788
48	0x3da552ef	0.08072459
49	0xbdbb1875	-0.09135524
50	0x3cd0de42	0.025496606
51	0x3e1396c4	0.14412981
52	0xbe154761	-0.1457801
53	0xbc9ebff6	-0.019378643
54	0x3dd918ca	0.10600431
55	0x3dea9d8d	0.11455832
56	0x3cfe4747	0.031039847
57	0xbc7c086e	-0.015382869
58	0xbc74c80a	-0.014940271
59	0x3e948035	0.29004064
60	0x3ddbb365	0.10727576
61	0x3da2cd2a	0.07949288
62	0x3c1a691b	0.009424473
63	0x3d6bcaf9	0.057566617
64	0xbd891494	-0.06693378
65	0x3e1113f2	0.14167765
66	0x3b728890	0.0037007667
67	0x38a20dae	7.72731e-05
68	0x3e14fa35	0.14548571
69	0x3e12a643	0.14321236
70	0x3e15d634	0.14632493
71	0x3ddc833d	0.10767219
72	0xbc84c3eb	-0.016206702
73	0xbe1b46f1	-0.15163781
74	0x3d8951e0	0.067050695
75	0xbdef1caa	-0.11675389
76	0xbd7ba482	-0.061436184
77	0xbd4865ec	-0.048925325
78	0xbdab2ff2	-0.08358754
79	0xbe97d9cf	-0.29658362
80	0x3cc94322	0.024568144
81	0xbc9fb911	-0.019497426
82	0x3e38fdfb	0.18065636
83	0x3db61618	0.08890933
84	0x3c85f47d	0.016351933
85	0xbde2d817	-0.11076372
86	0xbd228efa	-0.039687134
87	0xbe5758ef	-0.21030019
88	0x3e632837	0.2218331
89	0x3e1b2dcb	0.15154187
90	0x3d3253fe	0.043537132
91	0x3e06572e	0.13119194
92	0x3e3cc533	0.184346
93	0x3deb843c	0.11499831
94	0xbd57588e	-0.052574687
95	0xbc6bab74	-0.014384139
96	0x3e494f49	0.19659151
97	0x3eddfc3a	0.43356496
98	0x3e69daed	0.2283742
99	0xbe52d773	-0.2059
100	0x3cdc3f61	0.02688569
101	0xbda8051f	-0.08204102
102	0x3df93505	0.12168316
103	0x3e89d0ec	0.26917207
104	0x3dfd600c	0.12371835
105	0x3e248973	0.16068058
106	0x3eb880f1	0.36035874
107	0x3e6f38a6	0.23361453
108	0x3d4d062b	0.05005471
109	0x3ea072aa	0.31337482
110	0x3e14fafd	0.1454887
111	0xbcbb048b	-0.022829315
112	0x3e9988b3	0.29987106
113	0x3c6ace3f	0.014331399
114	0xbc690340	-0.014221966
115	0x3c1226ab	0.008920352
116	0x3d409ec1	0.0470264
117	0x3bf6f292	0.007536241
118	0x3ebd1f21	0.36937812
119	0x3e9ba418	0.3039863
120	0x3e873b8f	0.26412627
121	0x3bea392d	0.007147929
122	0x3cc96567	0.024584485
123	0x3e5b8c3e	0.21440217
124	0x3e199a70	0.1500032
125	0xbcd60cc1	-0.026129128
126	0x3df043a6	0.11731653
127	0x3e053edd	0.13012262

attention.0.weight f4 [64, 64]
0	0xbc598b6b	-0.013277869
1	0xbdababce	-0.083823785
2	0xbd2bbbce	-0.04192715
3	0x3cbe62fb	0.023240557
4	0x3c31abc0	0.010844171
5	0xbe0feeea	-0.14055982
6	0xbd7904bc	-0.06079553
7	0x3e275987	0.16342746
8	0x3dc5ef85	0.09664825
9	0xbba203d7	-0.0049443054
10	0xbdb517e4	-0.088424474
11	0xbe8fc314	-0.2807852
12	0x3e482d97	0.19548641
13	0xbe5e02dd	-0.2168078
14	0xbd35597a	-0.044274785
15	0xbe3bfa0a	-0.18357101
16	0x3e5da8a6	0.21646366
17	0xbc23411d	-0.009964255
18	0x3b3a9ced	0.0028474883
19	0x3d0d56ff	0.034506794
20	0x3dd10029	0.10205109
21	0x3dc8b5d3	0.09800305
22	0xbc1c525a	-0.0095411185
23	0x3e3ed0e0	0.18634367
24	0xbdb531f7	-0.08847421
25	0x3d491653	0.049093556
26	0x3d9acfbe	0.07559155
27	0xbe85e1db	-0.26148877
28	0x3ddf5c79	0.1090631
29	0xbd3394a2	-0.04384292
30	0xbdbe7d6a	-0.093012646
31	0xbe2f06c7	-0.17092429
32	0xbcae5cfb	-0.02128457
33	0xbdea6de7	-0.114467435
34	0xbda56e04	-0.080776244
35	0x3c928e4a	0.017890114
36	0xbd87c09d	-0.06628535
37	0xbc99ab0d	-0.018758321
38	0xbd82a51f	-0.063791506
39	0x3affc4e7	0.0019513638
40	0x3db9beb1	0.090695746
41	0x3ddc9145	0.107698955
42	0x3c293dc4	0.0103296675
43	0x3e209aee	0.15684101
44	0xbd0a1cd4	-0.0337189
45	0x3f242511	0.6411906
46	0xbdcad8b0	-0.09904611
47	0x3d94a4eb	0.07258018
48	0xbde46d87	-0.11153703
49	0x3df9de8b	0.1220065
50	0xbcbc45ee	-0.022982564
51	0xbe28899a	-0.16458741
52	0x3daac59a	0.08338471
53	0x3d61c862	0.05512274
54	0xbdfbbaac	-0.12291464
55	0xbd8fe093	-0.07025256
56	0xbddbfedd	-0.10741971
57	0x3d75fcaa	0.060055412
58	0x3da3da8f	0.08000671
59	0xbc5f7de4	-0.0136408545
60	0xbc648f9c	-0.013950255
61	0xbdf49377	-0.11942189
62	0x3db1c07a	0.0867929
63	0xbda0dfd0	-0.07855189
64	0x3dc573f8	0.0964126
65	0xbc368781	-0.011140705
66	0xbe51fb6a	-0.20506063
67	0xbd2739eb	-0.04082672
68	0x3e125004	0.14288336
69	0x3d5c21c4	0.05374314
70	0xbe90a6cc	-0.28252256
71	0xbe1d87e2	-0.15383866
72	0xbe0717f0	-0.13192725
73	0x3dbc0577	0.0918073
74	0xbd2649e1	-0.0405978
75	0x3e17b212	0.14814022
76	0xbddea86b	-0.10871967
77	0xbd2adc90	-0.04171425
78	0xbe142c86	-0.1447011
79	0x3dfef927	0.12449866
80	0x3d13ae1c	0.036054716
81	0xbdd86fd8	-0.105682075
82	0xbd83248e	-0.06403457
83	0x3e2b411a	0.16724053
84	0xbddb85d3	-0.10718884
85	0xbcc6f17c	-0.02428507
86	0xbdbfb2a8	-0.09360248
87	0x3d9b3723	0.07578876
88	0x3daf77ee	0.08567797
89	0xbe0b2553	-0.13588457
90	0x3d05e9d3	0.032693695
91	0x3e1bf4bc	0.15230078
92	0x3ccb1780	0.02479148
93	0x3e204ac6	0.15653524
94	0xbe2ab0c5	-0.16668995
95	0x3c5f0e13	0.013614195
96	0x3d6ad9bf	0.057336565
97	0xbd06522a	-0.0327932
98	0xbdec39e0	-0.11534476
99	0xbcdbbc53	-0.026823198
100	0x3c166a72	0.009180652
101	0xbe05cd66	-0.13066635
102	0xbd9128ef	-0.070878856
103	0x3e0e1e5a	0.13878766
104	0xbbfe24b2	-0.0077558393
105	0x3c78a644	0.01517636
106	0x3b23833e	0.0024950053
107	0xbc90bd08	-0.017668262
108	0xbe043aa7	-0.12912999
109	0xbe939ee8	-0.28832173
110	0xbda00544	-0.07813504
111	0x3c1c216d	0.009529454
112	0xbe25ae6b	-0.16179816
113	0xbd890eba	-0.06692262
114	0xbbed31c0	-0.0072385967
115	0x3e5d3947	0.21603881
116	0xbd50538b	-0.050860923
117	0xbe0d4049	-0.13794054
118	0xbd632f87	-0.055465247
119	0xbd855b6a	-0.065115765
120	0xbdbab0ff	-0.091157906
121	0x3d646706	0.055762313
122	0x3dcfd7cf	0.10148584
123	0x3cc70329	0.024293499
124	0xbd541d4e	-0.05178576
125	0x3e8e3475	0.27774397
126	0xbe148127	-0.14502393
127	0x3d1b5877	0.037926164
128	0xbdc1efeb	-0.09469589
129	0x3e165714	0.14681655
130	0x3d0e3319	0.0347167
131	0xbc121162	-0.008915277
132	0x3ccc18e5	0.024914214
133	0xbb7b6ae0	-0.0038363263
134	0x3e764e60	0.24053335
135	0x3d2a4264	0.04156722
136	0xbd57b56c	-0.05266325
137	0x3debcdd8	0.11513871
138	0x3d357dbe	0.04430937
139	0xbea5d001	-0.32385257
140	0x3ddb0ab1	0.106953986
141	0x3c954289	0.018220203
142	0x3e36d3e2	0.17854264
143	0xbcc32b0b	-0.023824235
144	0x3ba240fe	0.0049515953
145	0x3d7a61d1	0.06112844
146	0xbcf3682b	-0.029712757
147	0x3d30eba5	0.043193478
148	0x3c18b6a9	0.009320893
149	0x3ca10f86	0.019660722
150	0xbd40aa64	-0.047037497
151	0xbdb9a4a1	-0.090646036
152	0xbd6719ab	-0.056420963
153	0x3e1fff02	0.15624622
154	0xbd1c0fee	-0.03810113
155	0xbe1d72cb	-0.15375821
156	0x3e05984e	0.13046381
157	0x3dab6763	0.08369329
158	0xbdc496e2	-0.09599091
159	0xbe38996b	-0.18027274
160	0x3c386ce2	0.011256428
161	0xbded07e8	-0.115737736
162	0xbddd4755	-0.10804621
163	0xbdd591e7	-0.10428219
164	0xbb8d49e6	-0.004311788
165	0x3d4c45d3	0.049871277
166	0xbda3f481	-0.0800562
167	0x3d4dd305	0.050250072
168	0x3e456587	0.19277011
169	0xbde27327	-0.1105712
170	0x3b323244	0.0027190605
171	0x3d0c810e	0.034302764
172	0x3e37dd44	0.179555
173	0x3ef75d7f	0.4831352
174	0xbdd20c43	-0.10256245
175	0x3dca1aba	0.09868379
176	0xbcc1232f	-0.023576347
177	0x3dd3e798	0.103469074
178	0x3d85c30b	0.06531342
179	0xbe52055a	-0.20509854
180	0x3e04c051	0.12963988
181	0xbdb94ab3	-0.09047451
182	0x3dcb67ae	0.09931885
183	0xbb8b8713	-0.0042580455
184	0x3d1e0ccd	0.038586427
185	0x3dba7c35	0.09105722
186	0xbc96cb06	-0.018407356
187	0xbc613e45	-0.013747756
188	0xbd8e0ac5	-0.06935648
189	0xbe225a15	-0.15854676
190	0xbd349099	-0.04408321
191	0x3d682ac5	0.056681413
192	0x3be3909e	0.00694473
193	0x3ebe35e7	0.371505
194	0x3ea8ca34	0.3296677
195	0xbcf9994c	-0.030468605
196	0xbd640434	-0.05566807
197	0x3dd89cd2	0.10576786
198	0x3e8054dd	0.25064746
199	0xbe12531e	-0.14289519
200	0xbb02bebf	-0.001995012
201	0xbe3ddff0	-0.18542457
202	0x3b77b11b	0.0037794772
203	0x3e7130e8	0.23553813
204	0xbe816b1c	-0.2527703
205	0x3d666328	0.056246907
206	0x3e67e84f	0.22647212
207	0xbdb504e9	-0.08838827
208	0xbd220191	-0.039552275
209	0xbdd5570b	-0.10416993
210	0xbaa34008	-0.0012454996
211	0xbe874345	-0.2641851
212	0xbd5aeae9	-0.053446684
213	0xbd20edd8	-0.039289325
214	0x3db14444	0.08655599
215	0xbe5d4e95	-0.21612008
216	0x3e077f94	0.13232261
217	0xbb2dea2f	-0.002653729
218	0x3dc40558	0.09571332
219	0xbdb5b41c	-0.08872244
220	0x3da02b7f	0.07820796
221	0x3d9e4dd0	0.07729685
222	0x3d70d9a8	0.058801323
223	0x3e9f9899	0.3117111
224	0x3ef74bbd	0.4829997
225	0x3d89ed29	0.06734688
226	0x3ad41edd	0.0016183514
227	0xbdc8ab82	-0.097983375
228	0xbd2886e4	-0.041144267
229	0xbccf4a1c	-0.025303893
230	0xbe0dbf5a	-0.13842526
231	0x3cd7ac3f	0.02632725
232	0xbd86a25d	-0.06573937
233	0xbde830e2	-0.11337449
234	0xbdf34962	-0.11879231
235	0x3de3590e	0.1110097
236	0xbc56efde	-0.013118712
237	0x3b418e2b	0.0029534202
238	0x3e05dd1e	0.13072631
239	0x3e986856	0.29767102
240	0xbab2b2a2	-0.0013633559
241	0xbd462a19	-0.04837999
242	0xbead10cb	-0.33801875
243	0x3d5d7462	0.05406607
244	0x3bfb3980	0.0076667666
245	0x3c7035cf	0.0146612665
246	0x3d992518	0.07477778
247	0x3e7c4c17	0.24638401
248	0xbe18d2bd	-0.1492414
249	0xbd3fa768	-0.04679051
250	0xbdd0f0c6	-0.10202174
251	0xbdb7ff64	-0.08984259
252	0x3d8efb8a	0.06981571
253	0x3e8a6af4	0.27034724
254	0xbe118f3f	-0.142148
255	0x3e407e23	0.18798117

attention.0.bias f4 [64]
0	0xbd2be20c	-0.041963622
1	0x3f091317	0.53544754
2	0xbeb272e7	-0.3485329
3	0xbe6079ec	-0.2192151
4	0xbf1aa552	-0.6040851
5	0x3c3ad0c6	0.0114023145
6	0xbed980db	-0.4248112
7	0x3ef4596b	0.4772447
8	0xbed795a1	-0.42106345
9	0x3e347d85	0.17626007
10	0x3eda9a66	0.42695922
11	0xbf2507d2	-0.6446506
12	0xbe1f50f4	-0.15558225
13	0xbecec0a4	-0.40381348
14	0xbe6434c5	-0.22285755
15	0xbeaa9a98	-0.3332107
16	0xbece9c6e	-0.4035372
17	0x3eabde73	0.33568153
18	0xbe92e1e9	-0.2868798
19	0xbe053781	-0.13009454
20	0x3edb7dbc	0.42869365
21	0xbe9dcc4e	-0.30819935
22	0xbef6bc01	-0.4819031
23	0x3e84f6f9	0.25969675
24	0xbc1e26bc	-0.00965279
25	0x3ca10e75	0.019660214
26	0xbe8ae409	-0.27127102
27	0xbf22f762	-0.63658726
28	0x3f003ee6	0.50095975
29	0xbf312085	-0.69190246
30	0x3f243cd9	0.64155346
31	0xbf1b32f9	-0.60624653
32	0xbc223eaa	-0.009902636
33	0x3ee0c393	0.4389921
34	0x3ed17607	0.4091036
35	0xbf0aa460	-0.54157066
36	0xbee54fec	-0.44787538
37	0x3e3538c1	0.17697431
38	0xbdaedf39	-0.0853867
39	0xbf41cbc0	-0.7570152
40	0x3d4494ac	0.047993347
41	0x3ebcc5d2	0.36869675
42	0x3ee07496	0.43838948
43	0xbcde188e	-0.027111318
44	0xbf1fb371	-0.6238318
45	0xbe609a90	-0.21933961
46	0x3b9bff52	0.004760661
47	0xbde3b58c	-0.11118612
48	0xbeb5380f	-0.35394332
49	0xbc9b5264	-0.018960185
50	0x3e0613b1	0.13093449
51	0x3c65cc15	0.014025708
52	0x3efbb13c	0.49158657
53	0x3efb28f3	0.4905468
54	0xbefc8106	-0.49317187
55	0xbdd17eec	-0.102292866
56	0xbd21777a	-0.039420582
57	0x3e4c2661	0.19936515
58	0xbe13b706	-0.14425287
59	0xbda7adc2	-0.081874385
60	0x3e9711f6	0.2950589
61	0xbb851836	-0.004061724
62	0xbccc84fe	-0.02496576
63	0x3d77305c	0.060348853

attention.2.weight f4 [1, 64]
0	0xbea8e051	-0.3298364
1	0x3dc5f978	0.09666723
2	0xbdc076f6	-0.0939769
3	0x3e340f9b	0.17584078
4	0x3e2f9411	0.17146327
5	0xbdbad64a	-0.09122904
6	0x3e32fbb5	0.17478831
7	0xbd506552	-0.050877877
8	0x3e97ae68	0.2962525
9	0xbd430a89	-0.04761747
10	0xbe1d9e0c	-0.15392321
11	0x3d7676ed	0.06017201
12	0x3d9e9358	0.07742947
13	0x39b967ae	0.00035363197
14	0x3cfa208c	0.030533098
15	0x3e8e12a0	0.27748585
16	0xbe58904f	-0.211488
17	0x3eae2e9c	0.34019935
18	0xbe5a03ae	-0.21290466
19	0x3b05c0b2	0.0020409045
20	0x3bdd8018	0.0067596547
21	0x3e2d47bf	0.169219
22	0x3d6f6ccb	0.058453362
23	0x3ec08fd0	0.3760972
24	0xbe4b86de	-0.19875666
25	0x3df87b58	0.12132901
26	0x3b6fbef6	0.0036582327
27	0xbbb5ad4d	-0.0055443407
28	0xbeac213c	-0.33619106
29	0x3e3037dc	0.17208809
30	0x3ba26e79	0.004957017
31	0x3e7cdeab	0.24694316
32	0xbe38cce4	-0.1804691
33	0xbe7e3ad8	-0.24827135
34	0xbe3fcd1b	-0.18730585
35	0xbeb7afa1	-0.35876182
36	0x3d0548e2	0.03254021
37	0x3e91839c	0.28420722
38	0x3e391546	0.18074521
39	0x3c40172f	0.011724277
40	0xbe37d0e0	-0.17950773
41	0x3e31aedc	0.1735186
42	0xbe34dd11	-0.17662455
43	0x3ea898ef	0.3292918
44	0xbbb05cd5	-0.00538216
45	0xbea0d0f7	-0.31409428
46	0xbe8372f3	-0.25673637
47	0x3e7acff9	0.24493398
48	0xbea1906c	-0.31555498
49	0x3dad2268	0.08453828
50	0xbd83415d	-0.064089514
51	0xbe35aa8a	-0.17740837
52	0xbea79d28	-0.32737088
53	0xbe809d70	-0.25120115
54	0xbdc8bbb9	-0.0980143
55	0x3dfd5084	0.12368873
56	0x3e8f354c	0.2797035
57	0xbd948456	-0.072518036
58	0xbed13acf	-0.4086518
59	0xbe3b6f70	-0.18304229
60	0xbe1a037a	-0.15040389
61	0xbe37699e	-0.17911384
62	0xbe0e442c	-0.13893193
63	0xbdbc873d	-0.09205482

classifier.0.weight f4 [1, 64]
0	0x3f384e22	0.7199422
1	0xbde3b07a	-0.111176446
2	0xbda66ad0	-0.081258416
3	0x3f0524c1	0.52009207
4	0x3f015a05	0.50527984
5	0xbe9edb33	-0.3102661
6	0xbe7dba59	-0.24778117
7	0xbf031341	-0.51201254
8	0xbf2fb330	-0.68632793
9	0xbe1b71f2	-0.15180185
10	0x3ef7ea7b	0.48421082
11	0xbcba7804	-0.022762306
12	0xbdcc2740	-0.09968424
13	0x3e83e716	0.25762242
14	0xbeca37cc	-0.39495695
15	0x3f0af4ac	0.5427959
16	0xbe865f6d	-0.2624468
17	0xbf293876	-0.6610178
18	0xbee298e9	-0.44257286
19	0x3daae218	0.08343905
20	0xbed70c36	-0.42001504
21	0xbf1e9cac	-0.6195781
22	0xbf40e4d6	-0.75349176
23	0x3eb0bd59	0.3451946
24	0xbefc5705	-0.4928514
25	0xbdb6cbc0	-0.08925581
26	0x3f353b55	0.7079366
27	0x3d02f09a	0.031967737
28	0xbecde748	-0.40215516
29	0x3f218cdd	0.63105565
30	0xbf429d35	-0.7602113
31	0x3d8db2ef	0.069188945
32	0xbeb2aa3b	-0.348955
33	0xbefc44d6	-0.49271268
34	0x3ed72559	0.42020682
35	0x3ec85508	0.39127374
36	0x3f2155ff	0.63021845
37	0x3db6a902	0.089189544
38	0x3f0d7c7f	0.5526809
39	0xbdfbddc4	-0.12298158
40	0xbf13c9b7	-0.5772967
41	0xbeb74429	-0.3579419
42	0xbf1ab7dd	-0.60436803
43	0x3f6765bd	0.90389615
44	0x3e99b831	0.3002334
45	0xbf8e4315	-1.1114222
46	0x3ea84dd4	0.32871878
47	0xbe6deff8	-0.23236072
48	0x3f2dfe27	0.6796593
49	0x3f1ed567	0.62044376
50	0x3d9606c6	0.07325511
51	0x3df2d312	0.11856665
52	0x3f693828	0.9110131
53	0xbed9040b	-0.42385897
54	0x3f55ce30	0.8351774
55	0xbe0c6487	-0.13710223
56	0xbee9450b	-0.45560488
57	0xbf8ec620	-1.1154213
58	0xbecd04c7	-0.40042707
59	0xbf2aaf60	-0.6667385
60	0x3e9b0019	0.30273512
61	0x3e65d0d7	0.22442947
62	0x3f0b1578	0.54329634
63	0x3f0bc25d	0.5459345
